checkpoints/test_bs128_sl96_dm16_df16_ln4_k2_embtimeF_ar4.0_lr0.0003_pt5_te20_bn1_0/ebm.pth (torch, 6133 bytes, 3 tensors)

net.0.weight f4 [64, 13]
0.13677883 0.0018918929 0.25882176 -0.16719924 -0.031925846 -0.13113914 -0.20482105 -0.17373767
-0.25533956 -0.19868189 0.17634395 0.14900032 -0.24989554 0.10478026 -0.18697532 -0.24565668
0.01900485 0.11606199 -0.0018975635 0.21975598 0.2515787 0.25891015 -0.19935563 -0.014241177
0.07960801 0.13355187 -0.26951894 -0.07094582 0.25864264 -0.06731714 -0.20932178 0.17350437
-0.1297977 0.17270544 0.16068202 0.20832723 0.2455086 0.07890097 -0.15965606 -0.087184556
-0.06321358 -0.13538264 0.07555791 -0.13928497 -0.06310456 -0.07836302 0.17668545 -0.15768385
-0.012575338 0.0018444469 -0.14324878 0.07770774 -0.21563262 -0.19174562 0.2805947 -0.012639275
-0.10517667 0.1670207 -0.02416185 -0.28331554 -0.16985935 -0.2346424 0.21811002 -0.17828067
-0.23302063 -0.009639244 -0.11479314 0.075756595 0.0027301672 0.25259516 -0.18522076 0.022725314
0.03416186 -0.18406956 -0.23872165 0.14976908 -0.047960598 0.100596584 -0.21626954 0.06970979
0.2847745 -0.21608983 -0.069901854 0.10034441 -0.15554246 0.18316475 -0.17506093 0.052821107
0.14043269 0.028887397 -0.16828838 0.12762786 0.21065345 -0.04719407 0.1002017 0.17258632
-0.14563677 0.15685011 -0.07460347 -0.15939459 0.16063297 -0.100094244 0.24139965 -0.04437192
-0.14272757 0.19696221 -0.04737539 -0.01842208 -0.118169114 -0.03884092 -0.12798874 -0.008643212
-0.23750998 0.25527546 -0.16027372 -0.061180297 -0.05396687 0.16252373 0.09142499 0.07013152
0.25786015 -0.22981372 -0.1037324 0.11388242 -0.114586346 -0.08918426 -0.049385913 -0.23127066
-0.106797166 0.1030654 0.050798748 -0.20038942 -0.17225769 -0.07670275 0.07119948 0.12758042
-0.05708948 0.01683684 -0.12441083 -0.24859625 -0.11676016 0.0075190184 0.082449146 -0.21116354
-0.25424826 0.10872366 -0.14794028 0.046489812 -0.109989166 0.26760867 0.021116048 0.17680612
0.2014831 0.13683504 -0.14081362 0.2959194 -0.13457145 0.19307987 -0.022324441 0.14084837
0.015386774 0.20089854 0.07018492 0.12284143 -0.17719401 -0.11324853 -0.028397819 -0.062927775
0.13229115 -0.047643363 -0.13167278 -0.27805555 0.10271384 -0.13533497 -0.05904529 0.107823655
-0.27561298 0.17956981 0.29231632 0.24141777 0.23434605 0.2229688 0.21697934 0.17315045
0.17091502 0.11364118 -0.16954048 0.25734454 -0.15339555 0.21267344 0.072077654 -0.24873774
0.13391478 0.203575 0.20029837 -0.15145998 0.020249203 0.25229606 0.20665778 -0.23659371
0.07915994 0.22737713 0.008832526 0.20567238 0.08721935 -0.1075449 -0.13641784 0.18299043
-0.19560783 0.06713319 -0.016364254 0.04910283 -0.22800358 -0.01144297 -0.19877698 0.011261358
-0.10907563 0.19420104 -0.1331809 0.034172382 0.054556202 0.21039346 0.25252342 0.14824803
0.26266474 -0.18261793 0.18354851 -0.052378017 -0.25593215 -0.15023048 0.10636464 -0.03939223
-0.1784108 -0.009107473 0.25769433 0.14575571 -0.18219776 0.14321466 -0.1129824 0.24373975
-0.069034174 0.039758172 0.01979896 0.29992232 0.14385433 0.2208246 0.2904214 0.20684938
-0.26964566 -0.12771615 0.09589916 -0.22867203 0.2117155 0.23618634 -0.19378509 -0.20210022
00000000: c00f 0c3e 64f9 f73a 4984 843e 4736 2bbe
00000010: adc4 02bd 5749 06be 9cbc 51be 4ae8 31be
00000020: debb 82be 4473 4bbe 8293 343e 8a93 183e
00000030: 9ee4 7fbe 0897 d63d 7576 3fbe 6d8d 7bbe
00000040: 0fb0 9b3c e9b1 ed3d aab7 f8ba b607 613e
00000050: ecce 803e df8f 843e e223 4cbe d353 69bc
00000060: 8609 a33d d2c1 083e 63fe 89be 0b4c 91bd
00000070: cf6c 843e 92dd 89bd 7358 56be 21ab 313e
00000080: b0e9 04be b2d9 303e d489 243e bc53 553e
00000090: 9b66 7b3e d596 a13d e17c 23be d18d b2bd
000000a0: 1f76 81bd bfa1 0abe 1bbe 9a3d b8a0 0ebe
000000b0: f73c 81bd cb7c a0bd 08ed 343e e077 21be
000000c0: ca08 4ebc 5ec1 f13a cfaf 12be 3c25 9f3d
000000d0: ccce 5cbe f758 44be 1caa 8f3e f614 4fbc
000000e0: de66 d7bd 7907 2b3e 12ef c5bc bc0e 91be
000000f0: 9cef 2dbe 1946 70be 3c58 5f3e 358f 36be
00000100: f69c 6ebe ebed 1dbc aa18 ebbd 4626 9b3d
00000110: 9bec 323b 2754 813e 83aa 3dbe 702a ba3c
00000120: 4eed 0b3d bb7c 3cbe 7373 74be 115d 193e
00000130: 5572 44bd 9505 ce3d c375 5dbe 02c4 8e3d
00000140: f7cd 913e a746 5dbe b428 8fbd 5f81 cd3d
00000150: 8646 1fbe 8a8f 3b3e 2c43 33be f25a 583d
00000160: 96cd 0f3e 43a5 ec3c ca53 2cbe e1b0 023e
00000170: 8ab5 573e 924e 41bd 8d36 cd3d 78ba 303e
00000180: ce21 15be 519d 203e b4c9 98bd 5638 23be
00000190: f87c 243e 36fe ccbd 7831 773e 55bf 35bd
000001a0: 2d27 12be 76b0 493e b20c 42bd e7e9 96bc
000001b0: a602 f2bd a817 1fbd 7b0f 03be 429c 0dbc
000001c0: d135 73be 77b3 823e cb1e 24be 3198 7abd
000001d0: 5d0c 5dbd 9f6c 263e 063d bb3d 1da1 8f3d
000001e0: 3f06 843e 4a54 6bbe a771 d4bd 303b e93d
000001f0: 3fac eabd 3da6 b6bd e248 4abd 37d2 6cbe
00000200: 79b8 dabd f413 d33d 5912 503d e232 4dbe
00000210: 5264 30be 5516 9dbd 08d1 913d 71a4 023e
00000220: a9d6 69bd 6aed 893c 1bcb febd 0490 7ebe
00000230: f31f efbd 1962 f63b 19db a83d 413b 58be
00000240: d42c 82be 83aa de3d a87d 17be 1a6c 3e3d
00000250: 0042 e1bd 0104 893e 90fb ac3c aa0c 353e
00000260: 9651 4e3e 7c1e 0c3e 7231 10be bf82 973e
00000270: 19cd 09be bbb6 453e bfe1 b6bc 8e3a 103e
00000280: cf18 7c3c 59b8 4d3e 1dbd 8f3d 4a94 fb3d
00000290: 5972 35be d8ee e7bd 8ba2 e8bc 47e0 80bd
000002a0: 5577 073e b025 43bd 3bd5 06be 4c5d 8ebe
000002b0: a25b d23d 4095 0abe 79d9 71bd a6d2 dc3d
000002c0: 251d 8dbe 26e1 373e 7caa 953e 3836 773e
000002d0: 69f8 6f3e ef51 643e d52f 5e3e 5a4e 313e
000002e0: 5904 2f3e b5bc e83d 059c 2dbe aac2 833e
000002f0: b913 1dbe 11c7 593e 739d 933d 1bb5 7ebe
00000300: f520 093e f775 503e 041b 4d3e 5318 1bbe
00000310: a8e1 a53c f32c 813e 199e 533e 9f45 72be
00000320: 9b1e a23d 8dd5 683e 4db6 103c c89b 523e
00000330: 0fa0 b23d 8040 dcbd 1eb1 0bbe d861 3b3e
00000340: 6b4d 48be 207d 893d 540e 86bc 0d20 493d
00000350: c579 69be 4b7b 3bbc 318c 4bbe 8f81 383c
00000360: 0b63 dfbd a3dc 463e 9360 08be 57f8 0b3d
00000370: 5376 5f3d 6271 573e c04a 813e 55ce 173e
00000380: fe7b 863e 3200 3bbe 24f4 3b3e 558a 56bd
00000390: 8a09 83be 05d6 19be b4d5 d93d bf59 21bd
000003a0: 52b1 36be 8337 15bc 83f0 833e fc40 153e
000003b0: 0d92 3abe dda6 123e 5163 e7bd ea96 793e
000003c0: ca61 8dbd 77d9 223d 6e31 a23c 6b8f 993e
000003d0: 8d4e 133e d81f 623e 1db2 943e 53d0 533e
000003e0: ff0e 8abe 06c8 02be c766 c43d 0029 6abe
000003f0: f3cb 583e d5da 713e 996f 46be 5cf3 4ebe

net.0.bias f4 [64]
-0.22713546 0.27012968 -0.04710438 -0.06811082 -0.06453408 -0.10177066 0.013137579 0.10980043
0.040141396 -0.04315383 -0.24747132 0.27144423 -0.07278976 0.20065553 -0.014733161 -0.24535711
0.24478112 -0.17677476 0.11866796 0.02827831 -0.19089322 0.2659045 -0.2031544 -0.0040107463
0.08558559 0.12707727 -0.21368851 -0.024264114 -0.11990714 -0.18872654 -0.02336671 0.027445205
-0.10347618 -0.19871058 0.21189152 0.19957748 -0.019493282 -0.25218567 0.25139636 -0.15359744
0.034549303 0.22175018 0.13669904 -0.03519821 0.21866101 -0.22431795 0.26764578 -0.03238736
0.05252753 -0.21905366 -0.22850725 -0.12597457 0.23794474 0.055433594 0.2511898 -0.27628633
-0.1914547 -0.16126917 -0.19186327 -0.11260308 0.10433126 -0.19436435 0.19878858 0.00852028
00000000: 3396 68be 704e 8a3e 86f0 40bd b07d 8bbd
00000010: 722a 84bd 236d d0bd 003f 573c 0cdf e03d
00000020: 4e6b 243d 12c2 30bd 1f69 7dbe bdfa 8a3e
00000030: cc12 95bd a578 4d3e 5b63 71bc e53e 7bbe
00000040: e7a7 7a3e 7104 35be 3008 f33d eaa7 e73c
00000050: 8379 43be a224 883e b507 50be 946c 83bb
00000060: 7f47 af3d 8b20 023e 29d1 5abe 89c5 c6bc
00000070: e091 f5bd 8841 41be 8b6b bfbc c4d4 e03c
00000080: 52eb d3bd c97a 4bbe 17fa 583e 0a5e 4c3e
00000090: 60b0 9fbc 7b1e 81be 06b7 803e a648 1dbe
000000a0: 9283 0d3d 7b12 633e d5fa 0b3e 002c 10bd
000000b0: ace8 5f3e 9bb3 65be de08 893e 9ca8 04bd
000000c0: 1b27 573d 9a4f 60be cefd 69be 7aff 00be
000000d0: c9a7 733e 560e 633d f39b 803e 6775 8dbe
000000e0: b30c 44be bf23 25be ce77 44be 729c e6bd
000000f0: a1ab d53d 7307 47be 3c8f 4b3e a598 0b3c

net.2.weight f4 [1, 64]
-0.109079376 -0.11131717 0.038747724 0.007599857 -0.014652427 -0.04927786 -0.036893487 -0.075276084
-0.10349482 0.13749087 0.05672354 -0.13813493 0.09194087 -0.14220329 0.09442816 0.03634905
-0.038362306 0.13357456 -0.079782665 -0.057293043 -0.012553413 0.110142075 -0.030973779 -0.048488297
0.13505206 -0.059496887 0.016497018 0.08286327 0.10477974 0.05082523 -0.01222027 -0.03172012
-0.1062142 0.08558897 0.0016824424 0.08779708 0.0696695 0.13899572 -0.10982493 -0.09142735
0.122811474 -0.013802106 0.05362346 -0.040313575 0.10231367 -0.09033118 0.14286226 0.004189116
0.05859746 -0.03797188 0.008565575 -0.06181215 -0.102548175 -0.13315298 0.14541224 0.07162078
-0.0149978865 0.091951996 -0.07285827 -0.0049312175 -0.01457853 0.12964389 0.053515185 0.038218856
00000000: 0265 dfbd 42fa e3bd efb5 1e3d 3908 f93b
00000010: bc10 70bc 95d7 49bd a01d 17bd 592a 9abd
00000020: 18f5 d3bd 68ca 0c3e f156 683d 3e73 0dbe
00000030: 7f4b bc3d bd9d 11be 8d63 c13d bee2 143d
00000040: cb21 1dbd c5c7 083e 1865 a3bd 1cac 6abd
00000050: d5ac 4dbc 2b92 e13d b9bc fdbc aa9b 46bd
00000060: 164b 0a3e 02b3 73bd c124 873c 38b4 a93d
00000070: c396 d63d 1e2e 503d 8737 48bc f5ec 01bd
00000080: d586 d9bd 4549 af3d 6685 dc3a f5ce b33d
00000090: e2ae 8e3d e554 0e3e e5eb e0bd 433e bbbd
000000a0: 9584 fb3d 3a22 62bc 46a4 5b3d d91f 25bd
000000b0: d489 d13d 8eff b8bd 7c4a 123e da44 893b
000000c0: e403 703d 6788 1bbd a056 0c3c bd2e 7dbd
000000d0: c704 d2bd 4159 08be f2e6 143e eaad 923d
000000e0: b2b9 75bc 5451 bc3d b736 95bd 0d96 a1bb
000000f0: c9da 6ebc 5ec1 043e bd32 5b3d 608b 1c3d
