checkpoints/test_bs128_sl96_dm16_df16_ln4_k2_embtimeF_ar5.0_lr0.0003_pt5_te20_bn1_0/ebm.pth (torch, 6133 bytes, 3 tensors)

net.0.weight f4 [64, 13]
0	0x3f4ca69e	0.7994174
1	0xbf1e816d	-0.6191624
2	0xbeb1aea2	-0.34703547
3	0x3ec3584d	0.38153306
4	0xbf0f65b8	-0.56014585
5	0xbf4a94a3	-0.7913305
6	0x3ed6b0ea	0.4193185
7	0xbf51030f	-0.8164529
8	0x3eb57db0	0.35447454
9	0x3edfd368	0.43715978
10	0x3f43b743	0.7645151
11	0x3f3fa36d	0.7485874
12	0x3eb53c7c	0.35397708
13	0x3f80d6f9	1.0065604
14	0xbf87a6ad	-1.059774
15	0xbf8ff652	-1.1247046
16	0x3f654ca8	0.89570093
17	0xbf4a1a3b	-0.78946275
18	0xbf66f9a4	-0.9022467
19	0x3f8c2445	1.0948569
20	0xbf20de05	-0.62838775
21	0x3f923413	1.1422142
22	0x3f2a7f97	0.66600937
23	0x3f5cd8be	0.8626822
24	0x3f7235c4	0.9461329
25	0x3f80a5e7	1.0050629
26	0xbef66cd7	-0.48129913
27	0x3e34114e	0.17584726
28	0x3efd543f	0.49478337
29	0xbe93d7f5	-0.288757
30	0xbbc92b80	-0.006139219
31	0x3ec868f3	0.3914257
32	0xbec8025b	-0.39064297
33	0x3ee7b545	0.45255485
34	0xbdb89aa8	-0.09013873
35	0xbd7cab56	-0.061686836
36	0x3c313007	0.010814673
37	0xbe318145	-0.17334469
38	0xbec8158d	-0.39078942
39	0xbeb77e93	-0.35838756
40	0x3e49943d	0.19685455
41	0x3daa4943	0.08314755
42	0xbe02ecaa	-0.12785593
43	0x3d06ff02	0.03295804
44	0x3e5c3286	0.21503648
45	0xbead2d4e	-0.33823627
46	0x3efbaa38	0.49153304
47	0xbec58a6f	-0.3858218
48	0xbe9bf279	-0.3045843
49	0xbe7408fd	-0.23831554
50	0xbecb1a2e	-0.3966841
51	0xbe1ea9b0	-0.15494418
52	0xbf02b1c8	-0.5105252
53	0x3e35bcb3	0.17747764
54	0x3f21cf59	0.6320701
55	0xbec3de02	-0.38255316
56	0x3e6e0c59	0.23246898
57	0x3efd1ef1	0.4943767
58	0xbece5beb	-0.40304503
59	0x3dedd2ce	0.116124734
60	0xbf08a93e	-0.53383243
61	0xbf2017ed	-0.6253651
62	0xbe1df051	-0.15423705
63	0xbf0f0c2a	-0.55877936
64	0xbf16b53d	-0.588703
65	0x3f1eddfb	0.62057465
66	0xbf2c88f4	-0.67396474
67	0xbeef3595	-0.46720567
68	0x3f02759d	0.50960714
69	0xbe85d517	-0.26139137
70	0xbf4acc16	-0.7921766
71	0x3f130063	0.57422465
72	0xbf0b4b71	-0.5441199
73	0x3eb95af4	0.36202204
74	0x3ea74853	0.32672366
75	0x3f301f59	0.6879783
76	0x3efd55fc	0.49479663
77	0x3f24dd87	0.64400524
78	0xbf12ab62	-0.5729276
79	0x3ef61ff9	0.48071268
80	0x3f2c9151	0.67409235
81	0xbf18a94a	-0.59633315
82	0x3e88053d	0.26566496
83	0x3efbfbf5	0.49215665
84	0xbf127ce1	-0.572218
85	0x3f215b33	0.63029784
86	0xbf142621	-0.5787068
87	0xbec3c94c	-0.38239515
88	0xbe82f5c9	-0.25578144
89	0xbec4c8df	-0.38434502
90	0xbf0dd4c7	-0.554028
91	0x3f847698	1.0348692
92	0xbf2b99b6	-0.6703142
93	0xbf6f2591	-0.93416697
94	0x3f7c0739	0.9844852
95	0xbf3da6e7	-0.740828
96	0xbf86dc0e	-1.0535905
97	0x3f8523ec	1.0401587
98	0xbf76744f	-0.9627122
99	0x3f3b4eb2	0.73166955
100	0x3f8466f4	1.0343919
101	0x3f48f484	0.784981
102	0x3f8ed7f2	1.1159651
103	0x3f55f7a0	0.8358097
104	0x3f19d003	0.60083026
105	0xbef1ba2f	-0.4721236
106	0xbf33cc41	-0.7023354
107	0x3f1ad47a	0.60480464
108	0xbf3d12f8	-0.7385707
109	0xbf446305	-0.7671359
110	0x3f07dddc	0.53072906
111	0xbf31b9be	-0.69424045
112	0x3ed784c7	0.4209349
113	0x3f6c96aa	0.92417395
114	0x3efb52b9	0.4908655
115	0x3f163b3f	0.5868415
116	0x3f1a1063	0.60181254
117	0xbde38240	-0.111088276
118	0x3eb4f10b	0.3534015
119	0x3ea1eabc	0.316244
120	0x3ca69645	0.020335326
121	0x3c0b0a20	0.008486301
122	0x3e300f12	0.17193249
123	0xbe211ca2	-0.15733579
124	0x3e37e61d	0.17958875
125	0xbeb3bec5	-0.35106483
126	0xbeaa5a31	-0.33271936
127	0xbef4e0bd	-0.47827712
128	0xbebdd2b8	-0.37074828
129	0xbe0ebcfc	-0.1393928
130	0xbe29c1df	-0.16577862
131	0x3ba16513	0.004925379
132	0x3c8d7b88	0.017270818
133	0xbe7b5332	-0.24543455
134	0x3e6114a7	0.21980534
135	0x3eb8d51f	0.36100098
136	0xbe8a5a5b	-0.2702206
137	0x3e88be3a	0.2670763
138	0xbea7baf1	-0.32759812
139	0xbef48423	-0.47757062
140	0xbea03214	-0.31288207
141	0xbe47b031	-0.19500805
142	0xbde0068a	-0.10938747
143	0x3f2fd1c2	0.6867944
144	0xbf8fcc50	-1.1234226
145	0xbf444b96	-0.76677835
146	0x3f39c6e6	0.7256912
147	0xbf5af0b6	-0.85523546
148	0xbf80d2a9	-1.0064288
149	0x3f91d842	1.1394122
150	0xbf5aeb6f	-0.85515493
151	0x3f8743b2	1.0567534
152	0x3f8817df	1.0632285
153	0x3f81439e	1.009876
154	0x3f38caa9	0.72184235
155	0x3f94ffe8	1.1640596
156	0xbeaaa44a	-0.33328468
157	0x3ecfc28c	0.40578115
158	0x3e32f45d	0.1747603
159	0xbd13dbcb	-0.036098283
160	0x3e228ffc	0.15875238
161	0x3ed727e6	0.42022628
162	0xbe1f9aa8	-0.1558634
163	0x3ec4a6b9	0.3840845
164	0xbec83375	-0.3910176
165	0xbeb4ed25	-0.35337177
166	0xbe6b7bb1	-0.22996403
167	0xbe8def18	-0.27721477
168	0xbd82471f	-0.063612215
169	0x3f597ab2	0.84952843
170	0xbf800b03	-1.000336
171	0xbf939c82	-1.1532137
172	0x3f79c874	0.9757149
173	0xbf849a78	-1.035964
174	0xbf746f4e	-0.9548234
175	0x3f7aaef6	0.9792322
176	0xbf936590	-1.151537
177	0x3f878ef3	1.05905
178	0x3f93a617	1.1535062
179	0x3f8e9205	1.1138312
180	0x3f8c56d5	1.0963999
181	0x3f8b9a0c	1.0906386
182	0xbb78ecab	-0.0037982862
183	0x3ec9fc22	0.39450175
184	0x3ebe8b04	0.37215436
185	0xbd86be4a	-0.065792635
186	0xbcabc970	-0.020970076
187	0x3ef9409a	0.486821
188	0xbec5a15d	-0.38599673
189	0x3ef64ca4	0.48105347
190	0xbe13e15d	-0.14441438
191	0xbeff6fcb	-0.4988998
192	0xbd8bb7fb	-0.06822201
193	0xbc907118	-0.017632052
194	0x3a364392	0.0006952818
195	0x3f357ac4	0.7089045
196	0xbf5163c9	-0.81792885
197	0xbf14d1fa	-0.581329
198	0x3f85938d	1.0435654
199	0xbf880fd8	-1.0629835
200	0xbf4a5325	-0.7903312
201	0x3f87de96	1.0614803
202	0xbf56dc48	-0.8392987
203	0x3f84e921	1.0383645
204	0x3f6b77b0	0.91979504
205	0x3f3c756f	0.7361669
206	0x3f30cde3	0.6906416
207	0x3f8255f8	1.0182486
208	0x3f384124	0.71974397
209	0xbf53ce87	-0.8273701
210	0xbf6b4df2	-0.9191581
211	0x3f72e3f0	0.94879055
212	0xbf928944	-1.144814
213	0xbf6cddb3	-0.92525786
214	0x3f333af7	0.7001185
215	0xbf641085	-0.89087707
216	0x3f4c731e	0.79863155
217	0x3f8a7bb1	1.0818998
218	0x3f43e1d4	0.7651646
219	0x3f6c5da7	0.923304
220	0x3f72c762	0.94835484
221	0xbd436d16	-0.047711454
222	0x3ef8644b	0.48514017
223	0x3ebb35df	0.36564538
224	0x3d7789a5	0.060434002
225	0x3bd05101	0.0063573127
226	0x3ee65e6a	0.44993907
227	0xbe94f434	-0.29092562
228	0x3c627289	0.013821253
229	0xbec3f482	-0.38272482
230	0xbe16ab2f	-0.14713739
231	0xbe86d174	-0.26331675
232	0xbed1072d	-0.40825787
233	0xbe67b40f	-0.2262728
234	0x3f950f4c	1.1645293
235	0xbf3c14b8	-0.73469114
236	0xbf88d177	-1.0688924
237	0x3f8380fb	1.0273737
238	0xbf833691	-1.0251027
239	0xbf29a6c3	-0.66270083
240	0x3f507150	0.814229
241	0xbf590f6d	-0.8478916
242	0x3f69229d	0.9106844
243	0x3f962b91	1.1732045
244	0x3f839e61	1.0282708
245	0x3f8c2f13	1.0951866
246	0x3f95cc3d	1.1702954
247	0x3f8f2499	1.1183044
248	0xbf9409bc	-1.1565471
249	0xbf82a8bc	-1.0207744
250	0x3f7c6c34	0.98602605
251	0xbf92b881	-1.1462556
252	0xbf33532d	-0.7004879
253	0x3f901aa1	1.1258126
254	0xbf8b446d	-1.0880257
255	0x3f31ed04	0.6950228

net.0.bias f4 [64]
0	0x3e51c5b0	0.20485568
1	0x3f6c5c54	0.9232838
2	0x3f255fb2	0.64599144
3	0x3f3016e9	0.6878496
4	0x3efd7c13	0.49508724
5	0x3e8d23f3	0.2756649
6	0x3f143f12	0.5790874
7	0x3f452f64	0.7702544
8	0x3efd3079	0.49451044
9	0x3f1c76f6	0.6111902
10	0x3eeb6f17	0.45983192
11	0x3f66ec3a	0.90204203
12	0x3f0fe8a1	0.5621434
13	0x3f512f48	0.8171277
14	0x3f23eb65	0.6403106
15	0x3eccb0cd	0.39978638
16	0x3f7021e3	0.9380171
17	0x3ee81513	0.45328578
18	0x3f43e2d1	0.7651797
19	0x3f2ee0a6	0.68311536
20	0x3e8672db	0.26259503
21	0x3f5faa72	0.87369454
22	0x3e6831b5	0.22675212
23	0x3f29ada1	0.6628056
24	0x3f349268	0.705359
25	0x3f4c12ec	0.7971637
26	0x3f074df3	0.52853316
27	0x3f216385	0.6304248
28	0x3f067747	0.5252575
29	0x3f03b95e	0.5145472
30	0x3f2df7c6	0.679562
31	0x3f15b9d5	0.5848668
32	0x3f050879	0.51966053
33	0x3e9afd17	0.30271217
34	0x3f70e0fc	0.940933
35	0x3f4b69b0	0.7945814
36	0x3f209a70	0.6273565
37	0x3ec2eecf	0.38072821
38	0x3f634e6e	0.8879155
39	0x3e32870b	0.17434327
40	0x3f2a5bfb	0.665466
41	0x3f5fdd49	0.8744703
42	0x3f4f2927	0.8092217
43	0x3f23cbb4	0.639827
44	0x3f52e8b0	0.823863
45	0x3ecc3a76	0.39888352
46	0x3f5585a8	0.8340707
47	0x3f2d341c	0.6765764
48	0x3f28fdd3	0.66012305
49	0x3ee86cb9	0.4539545
50	0x3ef8dfd7	0.48608276
51	0x3e97ff87	0.2968714
52	0x3f64a021	0.8930684
53	0x3f2df9e7	0.67959446
54	0x3f57660f	0.84140104
55	0x3ece53c9	0.40298298
56	0x3e731f41	0.23742391
57	0x3f00bba8	0.5028634
58	0x3ee54c3e	0.4478473
59	0x3f1a095c	0.6017053
60	0x3f52bf7e	0.82323444
61	0x3eec946f	0.46206996
62	0x3f5a3234	0.85232854
63	0x3f23817b	0.63869447

net.2.weight f4 [1, 64]
0	0xbf624f6f	-0.88402456
1	0xbf80b0ec	-1.0053992
2	0x3f084198	0.5322509
3	0x3f12d617	0.57357925
4	0x3ec14710	0.3774953
5	0xbf465064	-0.77466416
6	0x3ed6c999	0.41950682
7	0xbf7a06db	-0.9766671
8	0xbf425749	-0.75914437
9	0x3f34bb9c	0.7059877
10	0x3f151990	0.5824213
11	0xbf828fa7	-1.0200089
12	0x3f1d1178	0.6135478
13	0xbf81085e	-1.0080678
14	0x3f2e86d3	0.68174475
15	0xbf5e2e98	-0.86789846
16	0xbf72b7a7	-0.9481148
17	0x3f237f4a	0.638661
18	0xbf750913	-0.9571697
19	0xbf6ec326	-0.9326652
20	0xbf4c5f43	-0.7983286
21	0x3f1627a8	0.5865426
22	0xbf4b80e2	-0.79493535
23	0xbf6f120e	-0.93386924
24	0x3f35a743	0.70958346
25	0xbf74534e	-0.9543961
26	0x3f1bc311	0.6084452
27	0x3f2191f9	0.6311336
28	0x3f2da83b	0.67834824
29	0x3f0aada3	0.541712
30	0xbf6df934	-0.9295838
31	0x3ed2e3c1	0.41189387
32	0xbf7f0345	-0.99614364
33	0x3ebeb085	0.3724405
34	0xbf69d2ca	-0.91337264
35	0x3f0e291e	0.5553149
36	0x3f1aff27	0.6054558
37	0x3f385b9a	0.7201477
38	0xbf7c2c61	-0.98505217
39	0xbf2a9b99	-0.66643673
40	0x3f29366c	0.66098666
41	0x3ef35af4	0.4753033
42	0x3f0a205e	0.5395564
43	0xbf701b14	-0.9379132
44	0x3f147318	0.5798812
45	0xbf78b6be	-0.9715384
46	0x3f2394e8	0.6389909
47	0xbf66d1e8	-0.9016404
48	0x3ebf9ab8	0.3742273
49	0xbf72358d	-0.9461296
50	0xbefc9d8e	-0.49338955
51	0xbf52acf4	-0.82295156
52	0xbf7f8ba4	-0.9982245
53	0xbf82d3d5	-1.0220896
54	0x3f256816	0.6461195
55	0x3efb2144	0.49048817
56	0xbf4de15e	-0.8042201
57	0x3f22248c	0.63337016
58	0xbf75ddf2	-0.96041787
59	0xbf6a0d71	-0.9142676
60	0xbf665f60	-0.8998928
61	0x3f36a91c	0.7135179
62	0x3f092996	0.5357908
63	0x3ebd83e9	0.37014702
